----------------------------------------------------------------
        Layer (type)               Output Shape         Param #
================================================================
            Conv2d-1         [-1, 64, 178, 178]           1,792
       BatchNorm2d-2         [-1, 64, 178, 178]             128
         MaxPool2d-3           [-1, 64, 89, 89]               0
              ReLU-4           [-1, 64, 89, 89]               0
            Conv2d-5           [-1, 64, 89, 89]          36,928
       BatchNorm2d-6           [-1, 64, 89, 89]             128
              ReLU-7           [-1, 64, 89, 89]               0
            Conv2d-8           [-1, 64, 89, 89]          36,928
       BatchNorm2d-9           [-1, 64, 89, 89]             128
             ReLU-10           [-1, 64, 89, 89]               0
       BasicBlock-11           [-1, 64, 89, 89]               0
           Conv2d-12           [-1, 64, 89, 89]          36,928
      BatchNorm2d-13           [-1, 64, 89, 89]             128
             ReLU-14           [-1, 64, 89, 89]               0
           Conv2d-15           [-1, 64, 89, 89]          36,928
      BatchNorm2d-16           [-1, 64, 89, 89]             128
             ReLU-17           [-1, 64, 89, 89]               0
       BasicBlock-18           [-1, 64, 89, 89]               0
           Conv2d-19           [-1, 64, 89, 89]          36,928
      BatchNorm2d-20           [-1, 64, 89, 89]             128
             ReLU-21           [-1, 64, 89, 89]               0
           Conv2d-22           [-1, 64, 89, 89]          36,928
      BatchNorm2d-23           [-1, 64, 89, 89]             128
             ReLU-24           [-1, 64, 89, 89]               0
       BasicBlock-25           [-1, 64, 89, 89]               0
           Conv2d-26           [-1, 64, 89, 89]          36,928
      BatchNorm2d-27           [-1, 64, 89, 89]             128
             ReLU-28           [-1, 64, 89, 89]               0
           Conv2d-29           [-1, 64, 89, 89]          36,928
      BatchNorm2d-30           [-1, 64, 89, 89]             128
             ReLU-31           [-1, 64, 89, 89]               0
       BasicBlock-32           [-1, 64, 89, 89]               0
          Softmax-33           [-1, 64, 44, 44]               0
UpsamplingBilinear2d-34           [-1, 64, 89, 89]               0
AttentionBasicBlock-35           [-1, 64, 89, 89]               0
           Conv2d-36           [-1, 32, 89, 89]          18,464
      BatchNorm2d-37           [-1, 32, 89, 89]              64
             ReLU-38           [-1, 32, 89, 89]               0
           Conv2d-39           [-1, 32, 89, 89]           9,248
      BatchNorm2d-40           [-1, 32, 89, 89]              64
             ReLU-41           [-1, 32, 89, 89]               0
           Conv2d-42           [-1, 32, 89, 89]          18,464
      BatchNorm2d-43           [-1, 32, 89, 89]              64
       BasicBlock-44           [-1, 32, 89, 89]               0
          Flatten-45               [-1, 253472]               0
           Linear-46                   [-1, 27]       6,843,771
          Sigmoid-47                   [-1, 27]               0
================================================================
Total params: 7,188,507
Trainable params: 7,188,507
Non-trainable params: 0
----------------------------------------------------------------
Input size (MB): 0.37
Forward/backward pass size (MB): 174.99
Params size (MB): 27.42
Estimated Total Size (MB): 202.78
----------------------------------------------------------------
None

46
…
